Exploring Classification Using Feed Forward Neural Network/submission/best_digits.ckpt (torch, 712642 bytes, 24 tensors)

model.0.weight f4 [256, 64]
0	0x3dd7890c	0.105241865
1	0x3dc3c194	0.095584065
2	0xbdc4c908	-0.09608656
3	0x3da05dbb	0.07830378
4	0x3d6d9a03	0.058008205
5	0x3e2ca636	0.1686028
6	0x3e206a98	0.15665662
7	0xbd62b578	-0.055348843
8	0xbd9a3db5	-0.07531301
9	0xbd7c3299	-0.06157169
10	0xbb05b738	-0.0020403396
11	0xbc7efe86	-0.015563613
12	0xbd280558	-0.04102072
13	0x3bc75c04	0.006083967
14	0x3e112db0	0.14177585
15	0xbd2e83da	-0.042606212
16	0x3d420e65	0.04737701
17	0x3d7e5c0f	0.062099513
18	0xbdfa768b	-0.122296415
19	0xbe01e1a7	-0.12683736
20	0x3ca94ed9	0.02066748
21	0x3d8b8ef7	0.06814378
22	0xbd56cd65	-0.052441973
23	0x3d229751	0.039695088
24	0x3dd4f70a	0.103986815
25	0xbdbb7239	-0.091526456
26	0x3da76ea8	0.08175403
27	0xbda30760	-0.07960391
28	0xbd9eda5c	-0.077564925
29	0xbd82566e	-0.063641414
30	0xbd791c42	-0.060817964
31	0x3b9e8ce0	0.004838571
32	0x3d9cd202	0.07657243
33	0xbcdef5cd	-0.027216816
34	0x3d93bdc7	0.072139315
35	0x3cb8bff7	0.022552473
36	0x3c4c5868	0.01247225
37	0x3ccab7d4	0.02474586
38	0xbd321fc5	-0.04348733
39	0x3c9ef888	0.019405618
40	0x3dabb425	0.08383969
41	0xbd4d0c23	-0.050060403
42	0xbdee1bde	-0.11626409
43	0x3d2d7a3e	0.042352907
44	0x3d5d3f85	0.054015655
45	0xbb6cc46b	-0.0036127816
46	0x3d2658e3	0.040612113
47	0xbd44d237	-0.04805204
48	0x3ccf1885	0.025280247
49	0xbd9f9a38	-0.07793087
50	0x3d9aac30	0.075523734
51	0xbc6737c2	-0.014112415
52	0xbcf455a4	-0.029825993
53	0xbda7f1e1	-0.082004316
54	0xbd94c452	-0.07264008
55	0x3cc031ae	0.02346119
56	0x3de80e16	0.11330812
57	0xbd3b14f9	-0.045674298
58	0xbdb1b537	-0.08677142
59	0x3c35c011	0.0110931555
60	0x3d306a77	0.043070283
61	0xbddb6776	-0.10713093
62	0x3c29c5ac	0.01036207
63	0xbd8b9f70	-0.0681752
64	0x3d76d904	0.060265556
65	0xbd8665d4	-0.06562391
66	0x3dc54565	0.096323766
67	0x3d935272	0.071934596
68	0x3dba9d5d	0.09112046
69	0xbdd00b29	-0.10158379
70	0x3d452bfe	0.048137657
71	0xbdb6db95	-0.08928601
72	0xbc8effac	-0.017455898
73	0xbd661c33	-0.056179237
74	0xbd227a7e	-0.0396676
75	0x3a72af95	0.0009257731
76	0x3d97d6be	0.07414006
77	0x3d215ab5	0.039393146
78	0xbd89ce03	-0.06728747
79	0xbd825e5b	-0.06365653
80	0x3b3f3484	0.002917559
81	0x3dccf85c	0.10008308
82	0x3b82d2c8	0.0039924122
83	0xbd3a8456	-0.04553636
84	0x3dbbdeba	0.09173341
85	0x3db852c4	0.09000161
86	0x3dfb5328	0.1227172
87	0xbe1205eb	-0.1426007
88	0xbda66e7e	-0.081265435
89	0x3dc859b7	0.09782737
90	0x3d07e36c	0.03317587
91	0x3dbd9169	0.092562504
92	0x3d8b849e	0.06812404
93	0xbdbe8b74	-0.09303942
94	0xbd0d611b	-0.034516435
95	0xbdffad81	-0.12484265
96	0x3d1cb41c	0.038257703
97	0x3d90b99f	0.070666544
98	0x3dd7c525	0.10535649
99	0xbe0db0be	-0.13836953
100	0xbe222385	-0.15833862
101	0x3a962594	0.0011455291
102	0xbbbcfc3b	-0.005767373
103	0x3d623d0c	0.055234
104	0x3dc9bc57	0.09850376
105	0xbd35f204	-0.044420257
106	0xbe1dc8d5	-0.15408643
107	0xbd200204	-0.039064422
108	0xbdd7fc3c	-0.10546157
109	0x3d9d1a03	0.07670977
110	0x3dde04d6	0.10840766
111	0xbdf363d8	-0.11884278
112	0xbd0b4ea4	-0.034010544
113	0x3d777d97	0.060422506
114	0x3d221d82	0.039578922
115	0x3d980c68	0.07424241
116	0xbdc2d80b	-0.09513863
117	0x3db882e4	0.090093404
118	0x3b66dd51	0.003522713
119	0xbdb14121	-0.086550005
120	0x3dba392a	0.090929344
121	0x3d8bd7fc	0.06828305
122	0x3d3a8abd	0.045542467
123	0xbd8797ad	-0.06620727
124	0xbda1ccc5	-0.07900385
125	0xbdc6f71e	-0.097151026
126	0xbd0c6c95	-0.03428324
127	0x3d363641	0.044485334
128	0x3d9e26b2	0.07722224
129	0xbbf26b79	-0.0073980656
130	0xbe010538	-0.12599647
131	0xbdb336cc	-0.08750686
132	0xbe0176c5	-0.12642963
133	0xbe2bd946	-0.16782102
134	0x3a7dc191	0.0009680028
135	0x3d91930e	0.071081266
136	0x3d31ca9b	0.04340611
137	0xbd31725d	-0.043321956
138	0xbdde3e4d	-0.10851727
139	0xbde3aba9	-0.11116726
140	0xbc6284e2	-0.013825627
141	0xbd548f5b	-0.051894527
142	0xbdae6a50	-0.08516371
143	0x3c2b9ba3	0.010474118
144	0xbdaa270e	-0.0830823
145	0xbcdace2e	-0.026709642
146	0x3d95daff	0.07317161
147	0xbd36fc33	-0.04467411
148	0x3ddec943	0.108782314
149	0x3d525568	0.05135098
150	0xbd1c014f	-0.038087185
151	0xbd1a0657	-0.037603702
152	0x3d546f64	0.051864043
153	0x3e1af3df	0.15132092
154	0x3d407010	0.04698187
155	0xbc0af6c7	-0.008481688
156	0x3d842fa0	0.06454396
157	0x3bd2322d	0.006414673
158	0x3e02c6f6	0.1277121
159	0x3df301b8	0.11865562
160	0x3c9f7ed8	0.019469664
161	0x3df62c40	0.12020159
162	0xbcd9e614	-0.026598968
163	0x3cab3b69	0.020902352
164	0x3e103203	0.14081578
165	0x3dd2a92f	0.102861755
166	0xbdcf778b	-0.10130223
167	0x3d54564c	0.05184011
168	0x3dab825e	0.08374475
169	0xba851c86	-0.0010155595
170	0xbb13267a	-0.0022453354
171	0x3bab2876	0.005223329
172	0x3cf7e887	0.030262245
173	0xbc8d1a1f	-0.01722437
174	0xbd9bca07	-0.07606893
175	0x3d30fefe	0.04321193
176	0x3d894fae	0.06704651
177	0x3d71b6bf	0.05901217
178	0xbdd9cf45	-0.10635237
179	0x3c0492eb	0.008091669
180	0x3e0c9815	0.1372989
181	0xbe01292d	-0.12613364
182	0x3cbe67b0	0.023242801
183	0xbd275d1c	-0.04086028
184	0xbcfec7da	-0.031101156
185	0xbe21e256	-0.15808997
186	0xbd1d58a2	-0.038414605
187	0x3d138ced	0.03602307
188	0xbcf402d4	-0.029786505
189	0xbd827006	-0.06369023
190	0xbd8401bd	-0.06445644
191	0x3e0f203f	0.13977145
192	0x3bda77a0	0.0066670924
193	0xbdaf2374	-0.08551684
194	0x3d177598	0.03697738
195	0xbdd8b333	-0.105810545
196	0xbc4da88d	-0.012552393
197	0xbd8948e0	-0.06703353
198	0xbd2609fc	-0.040536866
199	0x3ce4e96a	0.027943332
200	0x3cd27c66	0.025694083
201	0xbdb69e98	-0.08916968
202	0x3d131bbc	0.03591512
203	0x3de44838	0.11146587
204	0x3c639b2c	0.013891976
205	0xbd246f42	-0.040145166
206	0x3d874b14	0.06606117
207	0x3e054e40	0.13018131
208	0xbd8d3aad	-0.06895957
209	0xbd082bd9	-0.03324494
210	0x3d87e386	0.066351935
211	0xbdf91bfa	-0.12163539
212	0x3db44e8f	0.08804046
213	0x3db6f741	0.08933879
214	0x3e1ca9bf	0.15299128
215	0x3e10f853	0.14157228
216	0xb926a800	-0.00015893579
217	0x3c1d9643	0.009618345
218	0xbe046484	-0.12928969
219	0xbe2f11ca	-0.1709663
220	0xbe0ea821	-0.13931324
221	0xbcfc70ad	-0.030815447
222	0x3d31036f	0.043216165
223	0xbd90c63e	-0.07069062
224	0x3d821726	0.063520715
225	0xbde1d8f1	-0.110277064
226	0x3d94b96d	0.0726193
227	0x3bc561d0	0.006023623
228	0xbd77d9c0	-0.060510397
229	0x3d7d7fe1	0.061889533
230	0x3d8b59a8	0.0680421
231	0xbda3408c	-0.07971296
232	0x3d901109	0.07034499
233	0x3c03364b	0.00800855
234	0xbd82829e	-0.063725695
235	0x3e137ffe	0.14404294
236	0xbdaace03	-0.08340075
237	0xbd87dd91	-0.06634057
238	0x3bcc33e9	0.006231774
239	0xbd92328e	-0.07138549
240	0x3e10b875	0.14132865
241	0x3e03e365	0.12879713
242	0x3d9ada4e	0.075611696
243	0x3e0bcf0d	0.13653202
244	0x3dbc1fe0	0.09185767
245	0xbdaf04af	-0.08545815
246	0x3df98dfb	0.12185284
247	0x3dd6fe03	0.10497668
248	0xbd16bc49	-0.036800656
249	0xbd1211e0	-0.03566158
250	0x3d5eaa7d	0.05436181
251	0x3dbcb052	0.09213318
252	0xbdbaca2d	-0.09120593
253	0xbb410707	-0.0029453652
254	0x3cea15e0	0.028574884
255	0x3e27c37c	0.16383165

model.0.bias f4 [256]
0	0xbdc31280	-0.09525013
1	0xbc298066	-0.010345554
2	0x3e01b07d	0.12664981
3	0x3ca0fe44	0.019652493
4	0xbd854f38	-0.065092504
5	0xbe04959d	-0.12947698
6	0xbd78bdad	-0.060727764
7	0xbe06a0ac	-0.13147229
8	0xbbb6813d	-0.0055696056
9	0x3ca75b45	0.020429263
10	0x3d72d444	0.059284464
11	0x3de4e595	0.11176602
12	0xbc909442	-0.01764882
13	0xbd7d4498	-0.061832994
14	0xbdfcba80	-0.123402596
15	0xbdae83b1	-0.08521212
16	0xbcca35f9	-0.02468394
17	0x3cca2f20	0.024680674
18	0xbdd2815a	-0.10278578
19	0xbd3b9710	-0.04579836
20	0x3cb33c3d	0.02187931
21	0xbddad569	-0.10685236
22	0x3d9f5bf8	0.077812135
23	0xbd5fe4e9	-0.054661665
24	0x3e01c07f	0.12671088
25	0x3988d359	0.00026097408
26	0xbda88234	-0.08227959
27	0xbdfcea77	-0.12349408
28	0xbdd6531b	-0.1046507
29	0xbdb5ef17	-0.088834934
30	0xbdde9ac7	-0.10869365
31	0x3dbebe1a	0.09313603
32	0x3e08143a	0.13288966
33	0xbc7be0d3	-0.0153734265
34	0x3ceeb383	0.029138332
35	0x3cf6cd1b	0.030127099
36	0xbc8e0c1b	-0.017339757
37	0xbcc37f0d	-0.023864293
38	0x3b338894	0.002739464
39	0x3d34df0f	0.044158038
40	0xbd2f1221	-0.0427419
41	0xbdcb47e2	-0.0992582
42	0x3d7d16c6	0.061789297
43	0xbce11a1c	-0.02747827
44	0x3c832a73	0.016011452
45	0xbdcbcd61	-0.09951282
46	0x3db83d6e	0.08996092
47	0x3d5356f8	0.05159661
48	0xbdf9b3e3	-0.12192514
49	0xbe0b99ae	-0.13632843
50	0x3de79597	0.11307829
51	0xbb51f898	-0.0032039043
52	0x3d82a7f4	0.06379691
53	0x3d71a51f	0.058995362
54	0x3d97b5e9	0.074077435
55	0x3d8be88a	0.06831463
56	0x3c14b9f0	0.009077534
57	0x3e040565	0.12892683
58	0x3d5af979	0.053460572
59	0x3c7830fd	0.0151483985
60	0xbdc92626	-0.09821729
61	0xbdc30c3e	-0.095238194
62	0x3d7a56cc	0.061117932
63	0xbda5f176	-0.08102696
64	0x3c93b810	0.018032104
65	0x3d590099	0.052979086
66	0xbd8a48af	-0.067521445
67	0x3ca97d4d	0.02068963
68	0xbde6ed4a	-0.11275728
69	0x3d997a59	0.07494039
70	0xbd6988cf	-0.057015236
71	0x3d4dc492	0.050236292
72	0x3dae051b	0.084970675
73	0x3c037ba5	0.008025085
74	0x3de765b0	0.11298692
75	0xbd270cda	-0.04078374
76	0x3dc71a33	0.09721794
77	0xbd128cde	-0.035778873
78	0xbc5820ad	-0.013191384
79	0x3d3b7d52	0.04577381
80	0xbd892186	-0.06695847
81	0x3c6751fa	0.014118666
82	0x3ca17ffb	0.019714346
83	0xbd895482	-0.06705572
84	0xbbc61b30	-0.0060457215
85	0xbcbc8866	-0.023014259
86	0x3ca80c28	0.020513609
87	0xbd598ce5	-0.053112883
88	0x3d3cddab	0.046109837
89	0xbcf69568	-0.03010054
90	0xbddf5be8	-0.109062016
91	0x3d357508	0.044301063
92	0x3d49139b	0.049090963
93	0x3da23938	0.0792107
94	0x3d2c230c	0.04202561
95	0xbdc6ba8c	-0.0970355
96	0xbdc12ab8	-0.09431976
97	0x3d91d12a	0.07119973
98	0x3c1250d9	0.008930408
99	0xbd5c9282	-0.05385066
100	0xbdcd742a	-0.10031922
101	0x3cf2154f	0.029551176
102	0xbe03fd3d	-0.12889571
103	0x3abc8ccc	0.0014385222
104	0xbdd3037f	-0.10303401
105	0x3d9c4e4c	0.076321214
106	0x3d35c374	0.04437585
107	0x3d00f506	0.031483673
108	0x3d8bc4c3	0.06824639
109	0x3da05a8b	0.0782977
110	0x3c082147	0.008308715
111	0x3de115b5	0.109904684
112	0x3e004f86	0.12530336
113	0xbd05367c	-0.032522663
114	0x3dd73138	0.105074346
115	0xbd2547f5	-0.040351827
116	0xbd7e22c5	-0.062044878
117	0x3c8b3717	0.016994042
118	0x3cc54731	0.024081798
119	0x3cef38bd	0.02920186
120	0xbdcee99f	-0.101031534
121	0x3d80120e	0.06253444
122	0x3cd176dd	0.025569374
123	0x3d018344	0.031619325
124	0xbdaa30fe	-0.08310126
125	0x3dd42d93	0.10360255
126	0x3df05abe	0.11736058
127	0x3e008fe5	0.12554891
128	0xbcaf19ee	-0.021374669
129	0xbba2270b	-0.004948502
130	0x3dbfcbb2	0.09365024
131	0x3adcf618	0.001685801
132	0xbd8883d8	-0.06665772
133	0xbd3c0d73	-0.045911264
134	0xbdaef0e0	-0.08542037
135	0x3dc14caf	0.09438454
136	0xbdbaa9c3	-0.09114411
137	0xbd82b49b	-0.06382104
138	0xbda27166	-0.07931785
139	0xbddbad01	-0.10726357
140	0x3d8d1d7b	0.068903886
141	0xbcec0fab	-0.028816065
142	0xbc687c2c	-0.014189761
143	0xbdbb1d44	-0.09136441
144	0x3c16686c	0.00918017
145	0xbcc74ed6	-0.024329584
146	0x3dd23a6a	0.10265048
147	0xbdff3faf	-0.124633186
148	0xbdf03c10	-0.11730206
149	0xbdc37883	-0.0954447
150	0x3c499baf	0.012305184
151	0xbd926c9c	-0.07149622
152	0xbd9c40ee	-0.07629572
153	0x3dbb19ad	0.09135757
154	0xbbc83bd6	-0.0061106486
155	0xbda86ac1	-0.08223487
156	0xbd2ca6c0	-0.042151213
157	0x3db93ff1	0.09045399
158	0xbd44b692	-0.048025675
159	0x3dc619a1	0.09672857
160	0x3df19120	0.117952585
161	0xbd8442f3	-0.06458082
162	0x3cc98356	0.024598759
163	0xbc89742e	-0.016779032
164	0xbdcbb2b4	-0.09946194
165	0x3dff20ef	0.124574535
166	0xbcf263ce	-0.029588606
167	0xbc64211b	-0.013923909
168	0x3bd3464c	0.006447589
169	0x3df621bb	0.12018152
170	0x3dd655a3	0.10465553
171	0x3db1c64e	0.08680402
172	0xbcb90c9d	-0.022589022
173	0x3dd72561	0.10505176
174	0x3d799c73	0.060940217
175	0x3d2a241c	0.041538343
176	0x3d878fa0	0.06619191
177	0xbdba6217	-0.091007404
178	0x3b9f1f2b	0.0048560104
179	0x3d5522ec	0.052035257
180	0xbdd655fa	-0.104656175
181	0x3b659761	0.0035032856
182	0xbd98adb2	-0.07455005
183	0xbc309c09	-0.010779389
184	0x3c0a30df	0.008434503
185	0x3ddc04f5	0.10743133
186	0x3cc8a294	0.024491586
187	0xbd60ee27	-0.05491462
188	0xbd9b241c	-0.07575247
189	0xbd18c40a	-0.037296332
190	0x3b9e6147	0.0048333737
191	0x3deeb196	0.116549656
192	0xbd71581a	-0.05892191
193	0x3d0cd599	0.03438339
194	0x3c5f6f21	0.013637335
195	0xbd165b21	-0.036708
196	0xba108ad6	-0.0005513852
197	0x3d60e10a	0.054902114
198	0xbcba7b3c	-0.02276384
199	0x3bc1ccaf	0.0059142928
200	0x3d4b7825	0.049675126
201	0x3cfdb64a	0.030970711
202	0xbce3b594	-0.027796544
203	0xbd0833ac	-0.033252403
204	0xbd27f379	-0.041003678
205	0xbba26834	-0.0049562696
206	0x3d30e4fa	0.04318712
207	0xbc943f24	-0.018096514
208	0x3daf5296	0.08560674
209	0x3dbaa911	0.09114278
210	0xbdcca89f	-0.099930994
211	0xbddaa4d6	-0.10675971
212	0xbdb07d61	-0.08617664
213	0x3d1d5f14	0.03842075
214	0xbd9a3977	-0.07530492
215	0xbd9ab674	-0.075543314
216	0xbd256f1d	-0.04038917
217	0x3ca1850d	0.019716764
218	0x3cb11aad	0.021619165
219	0x3d87fc12	0.066398755
220	0x3d639494	0.055561617
221	0xbdc579c5	-0.09642366
222	0x3d976aba	0.07393403
223	0xbd9ab500	-0.07554054
224	0xbdd1a38c	-0.10236272
225	0x3ae039f5	0.0017107116
226	0x3ddeb40c	0.10874185
227	0xbdaee56e	-0.08539854
228	0xbdd3c65d	-0.10340569
229	0x3d7d6aed	0.06186955
230	0x3dae9a3e	0.08525513
231	0x3d79ea87	0.06101468
232	0x3d98a1a9	0.07452709
233	0xbd72c5ce	-0.059270673
234	0xbddd42f4	-0.10803786
235	0x3c7f6de8	0.015590169
236	0x3db085b2	0.0861925
237	0x3d875492	0.066079274
238	0x3c30fae8	0.010802008
239	0x3c6f1349	0.014592
240	0xbdd8662a	-0.10566361
241	0x3dc244e8	0.09485799
242	0xbd5b6bb3	-0.053569507
243	0x3d126939	0.03574488
244	0x3d39c979	0.045358155
245	0xbc085cc7	-0.008322901
246	0x3c5d0157	0.013489089
247	0xbd882ada	-0.06648798
248	0x3dbd6f4c	0.09249744
249	0xbc526a60	-0.012842745
250	0x3ccb9c40	0.02485478
251	0xbd32562c	-0.04353921
252	0x3db067a0	0.08613515
253	0x3d8d565e	0.06901239
254	0xbcef4249	-0.029206412
255	0x3dc1da41	0.09465457

model.3.weight f4 [128, 256]
0	0x3d3072d6	0.043078266
1	0xbd13e99b	-0.036111455
2	0xbc0fd2f3	-0.008778322
3	0x3dcc1eab	0.09966787
4	0xbdce6772	-0.100783244
5	0xbd40f3f2	-0.047107644
6	0xbbd4659b	-0.006481839
7	0xbd964a96	-0.07338445
8	0x3ce9e667	0.028552247
9	0x39fa8e7e	0.0004778988
10	0x3d175422	0.03694547
11	0xbd4d159a	-0.05006943
12	0x3c9019a4	0.017590351
13	0xbb7c0b45	-0.0038458866
14	0x3d4158e9	0.047203932
15	0xbd36827a	-0.044558026
16	0x3d729c2b	0.059230965
17	0x3d71dc0e	0.05904775
18	0x3bcb44b7	0.00620326
19	0xbd4e8ff7	-0.050430264
20	0x3a1de5dd	0.0006023327
21	0x3c984776	0.018588763
22	0xbd085511	-0.03328425
23	0xbc1c3dfb	-0.009536262
24	0x3c3d1a93	0.01154198
25	0x3d2c6e54	0.042097405
26	0x3d6ae78f	0.057349738
27	0xb948d160	-0.00019151485
28	0xbd1289ab	-0.03577582
29	0x3d12c3c9	0.035831247
30	0xbcdbc03c	-0.026825063
31	0x3c5138fa	0.012769932
32	0xbd236d45	-0.03989913
33	0x3c123ec4	0.008926097
34	0x3d2910b7	0.041275706
35	0xbd64ca2c	-0.05585687
36	0xbd634049	-0.05548123
37	0x3d144217	0.03619584
38	0xbd8579dc	-0.065173835
39	0x3d1350b1	0.035965625
40	0x3d03f424	0.032215253
41	0xbda2978b	-0.07939061
42	0xbb8b2a2b	-0.00424697
43	0x3b859ae7	0.0040773037
44	0x3d147834	0.036247447
45	0xbb374819	-0.0027966558
46	0xbcefdfe7	-0.02928157
47	0xbd0e6e70	-0.03477329
48	0xb969b3a2	-0.0002228753
49	0xbd4ce259	-0.05002055
50	0xbc0cd4db	-0.008595671
51	0xbd4fb9be	-0.050714247
52	0x3d52f02b	0.051498573
53	0x3d015b1a	0.03158102
54	0x3d0e493f	0.03473782
55	0x3cce38f8	0.02517365
56	0x3cd05163	0.025429433
57	0xbb53d39a	-0.003232217
58	0xbd393a1d	-0.045221437
59	0xbcae0df7	-0.021246893
60	0xbcd840f1	-0.026398154
61	0x3d4c9b14	0.04995258
62	0xbc6b44fd	-0.01435971
63	0xbd215798	-0.039390177
64	0xbd890e22	-0.06692149
65	0xbd530736	-0.05152055
66	0xbb989150	-0.0046559945
67	0x3ba86b80	0.005139768
68	0x3d20f920	0.039300084
69	0xbd3f8a46	-0.046762727
70	0xbcb3abe6	-0.021932553
71	0x3dae82fb	0.08521076
72	0xbdc60154	-0.09668222
73	0x3bcc3bc6	0.0062327115
74	0x3c5d216c	0.013496738
75	0x3d5930b3	0.05302496
76	0xbd391c6e	-0.04519313
77	0xbba2cdfb	-0.0049684024
78	0xbdb452ac	-0.08804831
79	0xbdaf1d29	-0.08550484
80	0x3d108a53	0.035288166
81	0xbc5dcc8d	-0.013537538
82	0x3cbd525e	0.023110565
83	0xbddf479e	-0.10902332
84	0x3ca46691	0.020068439
85	0x3c0fe63c	0.0087829195
86	0x3d552291	0.05203492
87	0xbd0ac8d6	-0.03388294
88	0x3d646900	0.0557642
89	0xbd0addb8	-0.033902854
90	0x3d467213	0.048448633
91	0x3c87de37	0.016585452
92	0x3d144d6f	0.03620666
93	0x3ce894cd	0.028391266
94	0x3d5e0c9a	0.054211237
95	0xbb3bcec3	-0.0028657175
96	0xbb2f044b	-0.002670544
97	0xbd5f7d3d	-0.054562796
98	0xbcd36944	-0.02580703
99	0xbd66b469	-0.056324396
100	0xbc39f84e	-0.011350704
101	0x3d245b05	0.040125865
102	0x3d6e70a9	0.05821291
103	0x3cc330ae	0.023826923
104	0xbd7b9622	-0.061422475
105	0x3d530ff3	0.051528882
106	0x3d09383c	0.033500895
107	0xbce9fc50	-0.028562695
108	0x3cac4fe9	0.021034198
109	0x3d9bf2d9	0.07614679
110	0xbd860990	-0.06544793
111	0xbd638cbf	-0.055554148
112	0x3c2536cd	0.010083866
113	0xbdb6016b	-0.08886989
114	0xbd5143c2	-0.05109001
115	0xbdb2563e	-0.08707856
116	0x3d439278	0.047747105
117	0x3d86ff1a	0.065916255
118	0x3a9d8e94	0.0012020641
119	0xbb6e33fc	-0.0036346903
120	0xbd759652	-0.05995781
121	0xbd51f4d8	-0.05125889
122	0xbd09d56b	-0.033650797
123	0x3d1e7c9f	0.038693067
124	0xbc05845d	-0.008149234
125	0xbd8f64ea	-0.0700167
126	0x3d5578f0	0.052117288
127	0xbc9dff97	-0.019286914
128	0x3cf04dee	0.029334035
129	0x3cf26a6a	0.029591758
130	0x3d69f904	0.057122245
131	0x3a9158d7	0.0011089098
132	0x3afed3f6	0.0019441831
133	0xbd1380cd	-0.036011506
134	0xbd17558b	-0.036946815
135	0xbd5a9dac	-0.053373024
136	0xbd403b31	-0.04693145
137	0xbd287754	-0.041129425
138	0x3d83cb40	0.06435251
139	0xbd067d3e	-0.032834284
140	0xbbeaa1c7	-0.0071603986
141	0xbd6ef326	-0.058337353
142	0xbcf1907d	-0.029487843
143	0xbd9fc700	-0.07801628
144	0xbd01dc26	-0.03170409
145	0xbd9ca29c	-0.07648203
146	0x3d1e1e97	0.03860339
147	0xbcb9d761	-0.022685708
148	0x3d3eacd2	0.046551533
149	0x3d9081b7	0.07055991
150	0xbdbf8284	-0.09351066
151	0xbbe3e964	-0.0069553126
152	0x3d5763cd	0.05258541
153	0xbd71828c	-0.05896239
154	0x3c98e8f8	0.018665776
155	0xbd3899a8	-0.045068413
156	0xbd3461c1	-0.044038538
157	0xbd54e843	-0.051979315
158	0xbcf5641f	-0.029954968
159	0x3cb0d2c9	0.021584885
160	0xbd324a21	-0.043527726
161	0x3aa1dd4d	0.0012349278
162	0x3d189b5f	0.03725755
163	0x3cfc0cc8	0.030767813
164	0x3d798995	0.060922224
165	0x3d4864ba	0.048924185
166	0x3c3bdfbb	0.011466916
167	0xbb889d0d	-0.0041691125
168	0xbc3da40d	-0.011574757
169	0x3cf3f19f	0.0297783
170	0x3d182bc5	0.037151117
171	0x3c5a8a52	0.013338642
172	0xbc927b91	-0.017881187
173	0x3ccc2926	0.024921965
174	0xbd46b263	-0.048509967
175	0x3d2787ac	0.04090087
176	0x3d898df4	0.067165285
177	0x3df11fb6	0.117736265
178	0x3bb5d145	0.0055486285
179	0x3cef8b02	0.029241089
180	0x3d1e5e3e	0.038664095
181	0x3dced02d	0.100983
182	0xbd8e1a10	-0.06938565
183	0xbd6ade4a	-0.057340898
184	0xbcb9aaa4	-0.022664376
185	0xbd348b99	-0.044078443
186	0xbc04b8cc	-0.0081007
187	0xbc6fec11	-0.014643685
188	0xbd809903	-0.06279185
189	0xbd8beba7	-0.068320565
190	0xbc89358e	-0.01674917
191	0xbc554fc0	-0.013019502
192	0x3d194f86	0.037429355
193	0xbd3dcd2d	-0.04633825
194	0xbdb351e3	-0.08755853
195	0x3bac105a	0.0052509727
196	0xbc95eaf4	-0.018300511
197	0x3c949243	0.01813615
198	0x3da823de	0.08209966
199	0x3d9db7fe	0.07701109
200	0x3b9032a8	0.00440057
201	0x3d6fada9	0.058515225
202	0xbd201612	-0.039083548
203	0xbd32bcb0	-0.043636978
204	0x3d025a76	0.03182455
205	0xbd0159a4	-0.03157963
206	0x3d522b8e	0.05131107
207	0x3c39f44a	0.011349747
208	0x3c8f5b72	0.01749966
209	0x3db8dfb4	0.09027043
210	0x3d2ec5ec	0.04266922
211	0xbd9816cf	-0.074262254
212	0xbd0bfe1c	-0.034177884
213	0xbd1dbd09	-0.038510356
214	0x3cc8618f	0.024460582
215	0xbb8eccac	-0.004357895
216	0xbcb820a8	-0.02247651
217	0x3cbc4221	0.022980751
218	0xbc74dadb	-0.014944757
219	0x3d18b218	0.03727922
220	0xbc582560	-0.013192505
221	0xbd0c1ab5	-0.034205157
222	0x3ced70eb	0.028984508
223	0x3dde9106	0.10867505
224	0x3d25f192	0.040513583
225	0x3d0d2222	0.03445638
226	0x3c1ff42d	0.009762806
227	0xbd905db1	-0.0704912
228	0xbd4c3471	-0.0498547
229	0x3d3bfe64	0.045896903
230	0xbd9cf620	-0.07664132
231	0xbd5094ec	-0.050923273
232	0x3d57cee6	0.052687548
233	0x3c1f2f8e	0.009715928
234	0xbd32dd10	-0.043667853
235	0xbd0338ec	-0.032036707
236	0xbcd95c75	-0.026533345
237	0xbd720c24	-0.05909361
238	0xbd009f4a	-0.03140191
239	0xbd823f23	-0.063596986
240	0x3d1323ac	0.03592269
241	0x3d58ce52	0.052931137
242	0x3d47e834	0.04880543
243	0x3dd3d563	0.10343435
244	0x3d78db9e	0.06075632
245	0xbdda582b	-0.10661348
246	0x3d7a754f	0.06114703
247	0x3d212dd8	0.03935036
248	0x3d863ac2	0.06554176
249	0x3d14a756	0.036292396
250	0x3d9aee7f	0.07565021
251	0x3dd4957c	0.103800744
252	0xbd9f924d	-0.077915765
253	0xbcd6987d	-0.026195759
254	0xbc477081	-0.012172819
255	0x3d09ec93	0.03367288

model.3.bias f4 [128]
0	0xbcd2842d	-0.025697792
1	0x3d012cc8	0.031536847
2	0xbcf71736	-0.030162435
3	0x3c9c0037	0.019043071
4	0xbd33857b	-0.04382847
5	0xbcc08606	-0.023501407
6	0xbd0e6ca0	-0.03477156
7	0x3c8a21b6	0.016861778
8	0xbd4e9e94	-0.0504442
9	0x3d426f88	0.047469646
10	0xbc09e5e3	-0.008416626
11	0xbca906da	-0.02063315
12	0xbd41547c	-0.04719971
13	0xbd152c89	-0.036419425
14	0x3d5a5f72	0.05331368
15	0xbd21a9dc	-0.03946863
16	0x3d93192b	0.07182535
17	0x3d524c7d	0.051342476
18	0x3d90e76d	0.07075391
19	0x3d7d76b8	0.061880797
20	0x3d59c0b4	0.05316229
21	0xbd501f25	-0.05081095
22	0x3d34ffe5	0.044189353
23	0xbd44e338	-0.048068255
24	0x3bd80c61	0.0065932726
25	0x3cbda8c0	0.023151755
26	0xbb12899a	-0.002235985
27	0x3d4ff0d8	0.050766796
28	0xbc1d0b4a	-0.009585211
29	0xbd17825d	-0.03698956
30	0xbcfa22d0	-0.030534178
31	0x3d8ae399	0.06781692
32	0xbd1a1d81	-0.037625793
33	0x3c59930e	0.0132796895
34	0xbd36ca61	-0.044626597
35	0x3c9389a9	0.018009977
36	0xbd683e71	-0.056700174
37	0xbd115d97	-0.035489645
38	0x3c42f0d8	0.011898242
39	0xbcec4723	-0.028842514
40	0xbc387943	-0.01125938
41	0xbc772e18	-0.015086673
42	0xbcd40349	-0.025880473
43	0x3cbe19fa	0.023205746
44	0xbc8c33a2	-0.017114464
45	0xbb275151	-0.0025530646
46	0x3c836bf2	0.016042683
47	0x3c96a6b1	0.018390032
48	0x3be16b31	0.0068792333
49	0x3d89f0f1	0.06735409
50	0x3d0969b6	0.03354808
51	0xbc9f88ee	-0.019474473
52	0x3c9bf91f	0.019039689
53	0x3c4e90da	0.0126077775
54	0x3c1a83e4	0.009430859
55	0x3c7ff170	0.015621528
56	0xbcda7964	-0.026669212
57	0x3ceb7338	0.028741464
58	0x3d217b1d	0.03942405
59	0xbcea2d1b	-0.028585961
60	0xbb9ef4d4	-0.004850963
61	0x3ce56cff	0.028006075
62	0xbd10751e	-0.03526794
63	0xbc58b406	-0.013226515
64	0xbd81c555	-0.06336466
65	0x3d0fb216	0.035081945
66	0xbc39c4d4	-0.011338431
67	0x3cc16ed4	0.023612417
68	0x39652bc2	0.00021855443
69	0x3ccae97f	0.024769543
70	0x3d5475e7	0.051870253
71	0x3c724606	0.014787203
72	0x3d854ce5	0.06508807
73	0xbd830afb	-0.06398579
74	0xbd5171a5	-0.05113377
75	0xbc8be3e3	-0.017076438
76	0x3cbd0300	0.02307272
77	0x3d8fd624	0.07023266
78	0x3d8ecdb8	0.069728315
79	0xbd26043c	-0.040531382
80	0x3c8541e3	0.016266769
81	0x3d57f080	0.052719593
82	0x3bfb3fad	0.007667503
83	0xbc38c09e	-0.011276392
84	0x3d4d4523	0.050114762
85	0x3c8009db	0.0156297
86	0xbd0e09ff	-0.0346775
87	0x3b0e4396	0.0021707765
88	0xbd5b3318	-0.053515524
89	0xbd467887	-0.048454788
90	0x3d889d20	0.06670594
91	0x3ccee05c	0.025253467
92	0xbbfff21d	-0.0078108446
93	0x3d348364	0.044070616
94	0xbbfd16a6	-0.007723647
95	0xbd197e38	-0.037473887
96	0xbcd7e8f6	-0.026356202
97	0x3d59acae	0.053143196
98	0xbd176a53	-0.036966633
99	0x3d461a62	0.048365004
100	0x3d9d08cc	0.076676935
101	0xbb9cc8e6	-0.004784691
102	0x3d5d8c33	0.054088783
103	0xbc5466e0	-0.01296398
104	0x3cd3905c	0.025825672
105	0x397e7e86	0.00024270461
106	0xbd81c65f	-0.063366644
107	0xbd7d9a27	-0.06191459
108	0x3d22a866	0.03971138
109	0x3d801d4b	0.06255587
110	0xbd3c658d	-0.045995284
111	0x3cd975cd	0.02654543
112	0xbd242a48	-0.040079385
113	0xbd45ef10	-0.04832369
114	0x3c994e33	0.018714046
115	0xbd3c4b72	-0.045970388
116	0xbc08f780	-0.00835979
117	0x3da3a239	0.07989926
118	0x3d553eb5	0.052061755
119	0xbd17df34	-0.037078097
120	0xbc75bcd9	-0.014998638
121	0x3cf012e0	0.029305875
122	0x3cf7f12c	0.030266367
123	0x3c9c8ad1	0.019109162
124	0xbccf9245	-0.025338301
125	0x3c65dd5f	0.01402983
126	0x3c987682	0.018611196
127	0xbd6cbd57	-0.057797756

model.6.weight f4 [64, 128]
0	0x3dd600c6	0.10449366
1	0xbd5297c3	-0.051414263
2	0x3d96613d	0.073427655
3	0x3d061aa6	0.032740258
4	0x3d9fc800	0.07801819
5	0x3d2a8059	0.041626308
6	0x3cf1daa3	0.0295232
7	0xbde2c178	-0.110720575
8	0xbd87363c	-0.06602141
9	0x3dad0630	0.08448446
10	0x3db57d38	0.08861774
11	0x3e074b9b	0.13212435
12	0xbcda144d	-0.026621008
13	0x3cb76b07	0.022389902
14	0x3d08aff6	0.033370934
15	0xbd5d6f9e	-0.054061525
16	0xbcf285db	-0.029604843
17	0xbc060f29	-0.008182325
18	0x3d36bf91	0.044616286
19	0xbcea4e06	-0.028601658
20	0xbce90534	-0.028444864
21	0x3db929bb	0.090411626
22	0xbcf7e83b	-0.030262103
23	0x3c838a80	0.016057253
24	0xbce1c822	-0.027561251
25	0x3dca9fbf	0.098937504
26	0x3d946a9f	0.07246899
27	0xbd391eb0	-0.04519528
28	0xbdb1204e	-0.0864874
29	0x3da0fac9	0.078603335
30	0x3dea13c2	0.1142955
31	0xbd9c658b	-0.07636555
32	0x3dd68dd8	0.10476273
33	0xbd696fbc	-0.056991324
34	0xbcfef535	-0.031122783
35	0xbc60b83e	-0.013715802
36	0x3d5c59df	0.053796645
37	0x3d45e69b	0.048315626
38	0xbc22f234	-0.009945441
39	0x3d4cfcd0	0.05004579
40	0x3d20a9b1	0.03922433
41	0x3d262c92	0.04056985
42	0x3d13f706	0.03612425
43	0xbd35470d	-0.044257212
44	0x3d821743	0.06352093
45	0xbcfb735b	-0.030694654
46	0xbce87607	-0.028376592
47	0x3d2d5373	0.04231591
48	0x3cd40251	0.02588001
49	0x3d31a793	0.0433727
50	0xbd0989c8	-0.033578664
51	0x3c46f4c9	0.012143322
52	0x3daa579e	0.08317493
53	0x3d84d345	0.06485609
54	0xbd9b1cfc	-0.07573888
55	0xbda55803	-0.080734275
56	0xbd2964c6	-0.04135587
57	0x3d36c937	0.044625487
58	0x3cafff50	0.021484047
59	0x3d4cca90	0.049997866
60	0xba1d2dad	-0.0005995881
61	0xbc72dcd9	-0.014823162
62	0x3d6433c0	0.055713415
63	0xbd5f2319	-0.05447683
64	0x3d917a0b	0.07103356
65	0x3dad26a4	0.08454636
66	0x3d9db84b	0.07701167
67	0x3c05c36d	0.008164269
68	0x3c8fb62e	0.017542925
69	0x3d832fe8	0.06405622
70	0x3d71297c	0.058877453
71	0x3dce9469	0.10086901
72	0xbc9e7453	-0.019342577
73	0xbd97df65	-0.07415656
74	0x3c863570	0.016382903
75	0xbc100af7	-0.008791677
76	0xbdc5aeb5	-0.09652463
77	0xbd8837ad	-0.06651244
78	0x3d1d0d88	0.038342983
79	0xbc28750f	-0.010281815
80	0xbd0c3b46	-0.034236215
81	0xbb96b6d8	-0.0045994334
82	0xbdb9acc9	-0.09066159
83	0xbdcd0c2c	-0.10012087
84	0xbd471401	-0.04860306
85	0xbc81ec01	-0.015859606
86	0x3d1fd962	0.03902567
87	0x3df5c421	0.12000299
88	0x3bc3dbbb	0.0059771216
89	0x3afb545a	0.0019174919
90	0x3e04890a	0.12942901
91	0x3d984368	0.07434732
92	0x3d5d6776	0.054053746
93	0xbd4d5629	-0.050130997
94	0xbb787f7f	-0.003791779
95	0x3d49b356	0.049243294
96	0x3cb2d424	0.021829672
97	0xbb035ff6	-0.002004621
98	0xbdb69338	-0.089147985
99	0xbd4be4c4	-0.049778715
100	0x3d3730e7	0.04472437
101	0x3d289c74	0.04116483
102	0xbc8f0d03	-0.01746226
103	0xbdbeb9f0	-0.093128085
104	0x3cb7cf13	0.022437608
105	0xbc54583a	-0.012960488
106	0xbc54aced	-0.012980682
107	0xbca225a1	-0.019793333
108	0x3cc2d1cd	0.023781681
109	0xbdc2d950	-0.09514105
110	0x3d9b7b07	0.07591825
111	0xbd0043a2	-0.0313145
112	0x3d95c3ac	0.07312712
113	0x3d4936ff	0.049124714
114	0xbd488166	-0.04895153
115	0x3cf4868e	0.029849317
116	0x3cefa772	0.029254649
117	0x3dbbe66b	0.09174808
118	0x3d80225c	0.062565535
119	0xbd892a19	-0.066974826
120	0xbd6ee6cb	-0.05832557
121	0x3cb54edd	0.022132332
122	0x3d5f935d	0.054583896
123	0xbd4e9db0	-0.05044335
124	0xbc1aef0c	-0.009456407
125	0xbdbcefa1	-0.09225393
126	0xbd4e82f0	-0.05041784
127	0xbb6e0014	-0.0036315965
128	0xbbf98c36	-0.0076155914
129	0x3d74d0ae	0.059769325
130	0xbde2c19c	-0.11072084
131	0xbc95fe3d	-0.018309707
132	0xbd3ad8a8	-0.045616776
133	0x3d80d39f	0.062903635
134	0xbbe61990	-0.0070220903
135	0x3dad3df9	0.08459086
136	0x3c878869	0.016544538
137	0x3d7165a2	0.058934815
138	0xbd5ee912	-0.054421492
139	0xbd14bb32	-0.036311336
140	0x3c9415d9	0.018076824
141	0xbde8ceb2	-0.11367549
142	0x3da3d8fa	0.08000369
143	0xbdc6c61a	-0.097057536
144	0xbd507b92	-0.050899096
145	0x3d7b8d5a	0.0614141
146	0xbde9b681	-0.11411763
147	0xbd92092c	-0.07130656
148	0xbda17970	-0.078844905
149	0x3c04fad4	0.008116443
150	0x39eb9dd0	0.00044940272
151	0x3df19fe3	0.11798074
152	0x3d59d40e	0.053180747
153	0x3a7a6197	0.0009551285
154	0xbd2f5f12	-0.042815275
155	0x3ccb34e7	0.0248055
156	0xbce8bceb	-0.028410396
157	0xbda06105	-0.07831005
158	0xbd3bf61c	-0.045889005
159	0xbdb87ff1	-0.09008778
160	0xbd5a4502	-0.053288467
161	0xbde9788a	-0.11399944
162	0xbceb6a5f	-0.028737245
163	0xbd3137ac	-0.043265983
164	0xbde9ebba	-0.114219144
165	0x3db1472c	0.08656153
166	0x3d562288	0.052279025
167	0x3cc263e5	0.023729274
168	0x3d66509b	0.056229215
169	0x3c36454a	0.011124918
170	0x3da3c6a9	0.07996876
171	0xbdd11531	-0.1020912
172	0x3d2b4be3	0.041820418
173	0xbbab6e8a	-0.005231683
174	0xbce2b4f6	-0.02767418
175	0xbd75e905	-0.060036678
176	0x3d48bb28	0.04900661
177	0xbdde9b03	-0.1086941
178	0xbd773e59	-0.060362194
179	0xbd11af96	-0.035567842
180	0xbd98c8c3	-0.07460167
181	0xbdda665c	-0.10664055
182	0x3d7d8832	0.061897464
183	0x3bd22eb3	0.0064142584
184	0xbd3a8df0	-0.04554552
185	0x3d551308	0.052020103
186	0x3d78ba30	0.060724437
187	0xbd694ee9	-0.05696002
188	0xbca84933	-0.020542717
189	0x3d996246	0.07489447
190	0x3dc648f3	0.09681883
191	0xbca2d8e7	-0.019878818
192	0xbd076bf4	-0.033061936
193	0xbdaa97ee	-0.083297595
194	0xbcf22c34	-0.029562093
195	0x3ba458ef	0.0050154845
196	0xbd127cd3	-0.035763573
197	0x3dc3d0e8	0.0956133
198	0xbcca6223	-0.024704998
199	0xbd750e41	-0.059828047
200	0x3d0f3815	0.034965593
201	0x3dae2ba5	0.08504418
202	0xbd66078b	-0.056159537
203	0xbd28d548	-0.041219026
204	0x3d6cff07	0.0578604
205	0xbd999412	-0.07498945
206	0xbd914287	-0.07092767
207	0x3da5e90d	0.081010915
208	0x3c381db9	0.011237555
209	0x3cdaec8e	0.026724126
210	0x3d4d37b0	0.050101936
211	0x3da60615	0.08106629
212	0xbd3a8e4e	-0.04554587
213	0xbc989e86	-0.018630277
214	0xbd5f5561	-0.054524783
215	0xbd576535	-0.052586753
216	0xbd5acc1a	-0.053417303
217	0x3c006a3f	0.007837831
218	0xbd97d58e	-0.07413779
219	0xbd22b708	-0.039725333
220	0x3d96ba51	0.07359756
221	0x3d8a6b0d	0.067586996
222	0xbdc61fb5	-0.096740164
223	0x3ddaf24a	0.10690744
224	0x3c879184	0.01654888
225	0x3dbada64	0.09123686
226	0xbcef2294	-0.029191293
227	0x3d6be8b9	0.05759499
228	0x3c3612ff	0.011112927
229	0xbe111f39	-0.14172067
230	0x3d5f4055	0.05450471
231	0x3d46fb48	0.048579484
232	0x3d83a15f	0.064272635
233	0xbcb6ce20	-0.022315085
234	0x3cfd9e98	0.030959412
235	0xba3ffe20	-0.00073239394
236	0x3ba4f84d	0.0050344826
237	0xbd470f22	-0.048598416
238	0xbd94908a	-0.07254131
239	0x3c9a7674	0.018855311
240	0xbdc431c8	-0.095798075
241	0x3dae4552	0.085093156
242	0xbdfa8e6d	-0.12234197
243	0xbb858337	-0.00407448
244	0xbb7a62ca	-0.0038205856
245	0xbc930dbe	-0.017950889
246	0x3ce3d266	0.027810287
247	0x3dd361b5	0.103213705
248	0x3d13d876	0.036095105
249	0x3d4e155a	0.05031333
250	0xbd83558b	-0.064128004
251	0xbd88ffe2	-0.06689431
252	0x3dded7b2	0.10880984
253	0xbc6069b4	-0.013697077
254	0xba86ff17	-0.0010299411
255	0xbcfcbbf4	-0.030851342

model.6.bias f4 [64]
0	0x3d142009	0.036163364
1	0xbd456e08	-0.048200637
2	0x3ad8dcf6	0.0016545344
3	0x3d6c4cfe	0.057690613
4	0x3d38d985	0.045129318
5	0x3c8623f8	0.016374573
6	0xbd8ce83d	-0.068802334
7	0x3d4034a0	0.046925187
8	0x3df4dde2	0.11956383
9	0x3db24b10	0.08705723
10	0x3db1db48	0.08684403
11	0xbd3db363	-0.046313655
12	0xbd0a2d5d	-0.033734668
13	0x3d6d3262	0.057909377
14	0x3cc37192	0.023857865
15	0xbd07b799	-0.033134077
16	0xbb05a9e9	-0.0020395464
17	0x3b5d729c	0.0033790236
18	0x3d687e07	0.056760814
19	0x3d8305d7	0.06397598
20	0x3c5c4417	0.013443968
21	0xbd6bfab3	-0.057612132
22	0x3d9c8573	0.07642641
23	0x3d776bfb	0.060405713
24	0xbcef1e5b	-0.02918928
25	0x3ca8d85a	0.020610977
26	0x3d64e563	0.055882823
27	0x3b6ddf0c	0.0036296276
28	0xbcff8bc2	-0.031194571
29	0xbcac65c8	-0.021044627
30	0x3c5c8f10	0.013461843
31	0x3cf553bb	0.029947152
32	0x3cc18f5f	0.023627935
33	0x3daa54bf	0.08316945
34	0xbcc8a110	-0.024490863
35	0x3c5e9cdc	0.013587203
36	0xbc1c1fcc	-0.009529065
37	0xbc8a4d2b	-0.0168825
38	0x3d1fb80b	0.038993876
39	0x3d57f31d	0.052722085
40	0xbcab011a	-0.020874549
41	0x3d6883df	0.056766387
42	0xbbc814af	-0.0061059813
43	0x3d9d1779	0.07670493
44	0xbcd07b9a	-0.025449563
45	0x3c83af55	0.016074816
46	0x3d88687e	0.06660555
47	0xbc5d660d	-0.0135131
48	0x3cfe1f2a	0.03102072
49	0xbc07379a	-0.008253003
50	0x3bd9d379	0.006647524
51	0x3d4c00dd	0.04980551
52	0x3d52ad4c	0.0514348
53	0xbd448e40	-0.047987223
54	0xbc27885a	-0.01022538
55	0x3dc4bed0	0.09606707
56	0x3d89da42	0.067310825
57	0xbcf794fb	-0.030222407
58	0xbda42d07	-0.08016401
59	0x3dde8326	0.10864858
60	0xbc89c0ad	-0.016815508
61	0xbcbe663f	-0.023242114
62	0x3e0a328c	0.13495845
63	0x3dbc339e	0.09189533

model.9.weight f4 [10, 64]
0	0x3e268656	0.16262183
1	0xbdc4f2ac	-0.096165985
2	0xbc322034	-0.010871936
3	0x3c01278e	0.007882966
4	0xbe05206d	-0.1300065
5	0x3e02f711	0.12789561
6	0xbe1850a7	-0.14874516
7	0x3d2563b9	0.040378306
8	0x3e20abe2	0.15690568
9	0xbe4d2546	-0.2003375
10	0x3d1be6a0	0.038061738
11	0xbdad7dca	-0.08471258
12	0xbe14f50b	-0.14546601
13	0x3d087b0b	0.033320468
14	0xbda2c7be	-0.07948254
15	0x3c1aef6b	0.009456496
16	0xbdc9d61d	-0.09855292
17	0x3e015a8a	0.12632194
18	0xbe071054	-0.13189822
19	0xbdc03aa2	-0.09386183
20	0xbe0e02fa	-0.13868323
21	0x3d08ecf0	0.033429086
22	0x3e35965d	0.1773314
23	0x3e0ef9ab	0.13962428
24	0x3d81782d	0.0632175
25	0x3c62a082	0.013832213
26	0x3dfad4fd	0.122476555
27	0xbe26cd8b	-0.16289346
28	0xbd6629e2	-0.056192286
29	0xbe0530cc	-0.13006896
30	0xbe0cae43	-0.1373835
31	0x3e087b5b	0.13328306
32	0x3dbb21f5	0.09137336
33	0xbd80ec69	-0.06295092
34	0x3d0dd0e3	0.034623038
35	0xbd3d3100	-0.04618931
36	0xbb269ece	-0.0025424245
37	0xbdbd30a0	-0.0923779
38	0x3e0ace7b	0.13555329
39	0xbe430713	-0.19045667
40	0xbcda0c4c	-0.026617192
41	0xbe008433	-0.1255043
42	0xbd28ffd4	-0.0412596
43	0xbdc7ff73	-0.0976552
44	0x3d90f3db	0.07077762
45	0x3df1baff	0.11803245
46	0xbdf33325	-0.118749894
47	0xbdb8a653	-0.09016099
48	0x3de40699	0.11134071
49	0xbe4157ec	-0.18881196
50	0x3d3351fe	0.043779366
51	0x3dd30ced	0.103052
52	0x3dbd973d	0.09257362
53	0xbcc5d9c1	-0.024151685
54	0xbdaecd75	-0.085352816
55	0xbe0f4304	-0.13990408
56	0x3db8c602	0.09022142
57	0xbe078852	-0.13235596
58	0xbe29b57c	-0.16573137
59	0x3defe75d	0.11714051
60	0x3da4daf4	0.080495745
61	0xbdb8171a	-0.08988781
62	0x3d170646	0.036871217
63	0xbd5f623b	-0.05453704
64	0xbce52e0b	-0.027976057
65	0x3de70bf8	0.1128158
66	0xbd577d73	-0.052609872
67	0x3de7d83e	0.11320542
68	0x3e1689d7	0.14701019
69	0xbe0edaa0	-0.13950586
70	0xbde67183	-0.112521194
71	0xbdd9da09	-0.1063729
72	0x3c88da76	0.016705733
73	0x3da6c994	0.08143917
74	0xbdb8cca6	-0.090234086
75	0x3d5059e6	0.050866984
76	0x3b315072	0.0027056006
77	0x3e186e4b	0.14885823
78	0xbd30a94e	-0.04313021
79	0x3dcf9bd2	0.10137142
80	0xbd22a6b0	-0.039709747
81	0xbe441401	-0.19148256
82	0xbdf0977f	-0.117476456
83	0xbd8c6e5a	-0.068569854
84	0xbb1429f4	-0.0022608014
85	0xbbb1a55e	-0.0054213246
86	0xbc6a7857	-0.014310918
87	0xbd2a7735	-0.04161759
88	0x3db480d6	0.08813636
89	0x3dc7dd30	0.09758985
90	0xbdc5a642	-0.09650852
91	0xbd9101b6	-0.070804045
92	0x3d7267e2	0.0591811
93	0x3d032a4b	0.032022756
94	0xbb802ef4	-0.0039118472
95	0xbdba2360	-0.090887785
96	0x3de50f42	0.11184551
97	0xbdbe24ee	-0.092843875
98	0x3db611ce	0.08890115
99	0xbdb51ff2	-0.08843984
100	0x3d1a6f0f	0.03770357
101	0xbdb3056b	-0.08741268
102	0x3cec4fae	0.028846588
103	0xbd98a672	-0.07453622
104	0xbd75c862	-0.060005553
105	0x3cda2551	0.026629122
106	0xbdb72e5d	-0.0894439
107	0x3dd87a16	0.10570161
108	0x3d6d5564	0.057942763
109	0xbd95dd9f	-0.073176615
110	0x3dd439d0	0.10362589
111	0xbb97725d	-0.0046217875
112	0x3d2b43ac	0.041812584
113	0x3e099026	0.13433895
114	0x3ddb20c0	0.10699606
115	0xbe0c1e0a	-0.13683334
116	0xbd08fb68	-0.033442885
117	0xbe0ab298	-0.1354469
118	0x3d6b96c0	0.057516813
119	0x3e13f15d	0.14447542
120	0x3dc66d87	0.096888594
121	0x3dfbecae	0.123010024
122	0xbd215e3d	-0.039396513
123	0x3db16397	0.086615734
124	0xbe0b24a1	-0.13588192
125	0xbddc4f8d	-0.107573606
126	0xbde4285c	-0.111405104
127	0xbca2b101	-0.019859793
128	0x3db69580	0.089152336
129	0xbde8e4d3	-0.1137177
130	0x3c32fb78	0.010924213
131	0xbd1a6654	-0.037695244
132	0xbd624b04	-0.05524732
133	0xbe02be14	-0.12767822
134	0xbb157b70	-0.002280917
135	0x3d5cc047	0.053894307
136	0x3d848bbb	0.06471964
137	0x3d383f77	0.0449824
138	0xbe1c85e3	-0.15285449
139	0x3df1812a	0.11792214
140	0xbe34ca9a	-0.17655411
141	0xbd112efb	-0.035445195
142	0x3dd86253	0.10565629
143	0x3d9070de	0.07052778
144	0x3e1ddcc0	0.1541624
145	0xbd0b7867	-0.03405037
146	0xbe255049	-0.16143908
147	0x3d7a5914	0.061120108
148	0xbdbc8124	-0.09204319
149	0x3dd41bcb	0.103568636
150	0xbe1b87e7	-0.15188561
151	0x3d4d2245	0.05008151
152	0xbe0a7c2f	-0.13523935
153	0x3d816c4d	0.06319485
154	0x3e12ac9d	0.14323659
155	0x3db50afe	0.08839987
156	0xbd721a03	-0.059106838
157	0xbd93deca	-0.07220228
158	0xbe23e18b	-0.16004007
159	0xbd1ff655	-0.03905328
160	0xbda1ea1f	-0.07905983
161	0xbe5c5cc7	-0.21519767
162	0xbe339594	-0.17537528
163	0x3de816c0	0.11332464
164	0xbe4f5ef5	-0.20251067
165	0x3de5082f	0.111832015
166	0x3d0f49db	0.034982543
167	0xbdd6ca00	-0.10487747
168	0xbcd52871	-0.02602026
169	0x3cf1b72f	0.029506294
170	0x3de3db23	0.111257814
171	0x3dc3c2eb	0.09558662
172	0xbe20d308	-0.15705502
173	0x3e1c2cf5	0.15251525
174	0xbce8e08e	-0.028427389
175	0x3da65a3d	0.0812268
176	0xbe3cfa6b	-0.18454902
177	0x3dcd13bd	0.100135304
178	0x3d7a7a3a	0.06115172
179	0xbe1e624e	-0.15467188
180	0xbdbcc85e	-0.092179045
181	0x3d984fc6	0.074370906
182	0xbca6d715	-0.020366231
183	0x3e173736	0.14767155
184	0xbd3b727b	-0.045763474
185	0x3d7124a9	0.058872852
186	0xbdcb7fa1	-0.09936453
187	0x3e099779	0.13436688
188	0xbe036e1e	-0.12834975
189	0x3d00a565	0.031407733
190	0xbd4f1ba0	-0.050563455
191	0x3dd3b870	0.10337913
192	0xbd5ef95f	-0.054437038
193	0xbdc93dd0	-0.09826243
194	0x3df580fe	0.11987494
195	0xbd87853b	-0.066172086
196	0xbc0bf638	-0.00854259
197	0xbddbd9d3	-0.10734906
198	0x3da04187	0.07824998
199	0x3d156264	0.036470786
200	0xbe383811	-0.17990138
201	0xbddcb96a	-0.107775524
202	0x3da888fb	0.08229252
203	0x3ddaee06	0.106899306
204	0x3b70d97c	0.0036750725
205	0xbe00ff04	-0.1259728
206	0x3db6ed8d	0.08932028
207	0x3de08f88	0.109648764
208	0x3e00c33a	0.12574473
209	0xbe33d573	-0.17561893
210	0xb981ff71	-0.00024795116
211	0x3e141b6f	0.1446359
212	0x3ded5608	0.11588675
213	0xbd77ed25	-0.060528893
214	0xbcc7ae14	-0.024375
215	0xbd2e0d99	-0.042493436
216	0xbe376d22	-0.17912725
217	0xbe47fc11	-0.1952975
218	0xbc9304dd	-0.017946655
219	0x3dc6ab29	0.09700615
220	0xbda32f6f	-0.079680316
221	0x3d4681dd	0.04846369
222	0x3df5d5a4	0.12003639
223	0xbcf899d6	-0.030346792
224	0x3cc637df	0.024196563
225	0xbda88540	-0.082285404
226	0xbe1e98fa	-0.15488043
227	0x3dea3da5	0.11437539
228	0xbdb0551d	-0.08609984
229	0x3de583d1	0.112067826
230	0xbc86ba71	-0.016446324
231	0x3dba3cd2	0.09093632
232	0x3dd124fd	0.10212133
233	0xbd9ec1c1	-0.077517994
234	0xbd70f962	-0.05883158
235	0x3d3c5de3	0.045987975
236	0xbde812f2	-0.113317385
237	0x3e1a5e16	0.15074953
238	0xbe474d38	-0.1946305
239	0xbd0f993c	-0.035058245
240	0xbd14d6c0	-0.036337614
241	0xbcd88f40	-0.026435494
242	0xbd9b2865	-0.07576064
243	0xbd3b12fa	-0.045672394
244	0x3d36dedd	0.044646133
245	0x3dab84d9	0.08374948
246	0x3dab1f0a	0.083555296
247	0x3df154fa	0.11783786
248	0x3d346235	0.04403897
249	0xbdbf7d98	-0.09350127
250	0x3dd21c9f	0.10259365
251	0xbdbe776a	-0.0930012
252	0x3db71437	0.089394026
253	0xbc026abf	-0.007960021
254	0x3dbe7ee6	0.09301548
255	0xbe193e26	-0.14965114

model.9.bias f4 [10]
0	0x3d81b14f	0.06332647
1	0x3d88eaa1	0.06685377
2	0xbd40ceff	-0.047072407
3	0x3dd21574	0.10257998
4	0xbd9ba504	-0.075998336
5	0xbc7bed73	-0.0153764365
6	0x3d0aecc6	0.03391721
7	0xbd5ae7b1	-0.053443614
8	0x3e5ab84c	0.21359366
9	0x3dfcf616	0.12351625

exp_avg f4 [256, 64]
0	0x00000000	0.0
1	0xb69993f5	-4.57698e-06
2	0xb9e75a0a	-0.00044126838
3	0xbb071e60	-0.002061747
4	0xbb3d467c	-0.0028881123
5	0xbadd352a	-0.0016876806
6	0xb994353e	-0.00028268428
7	0xb8a029ef	-7.637205e-05
8	0xa2c8636c	-5.4315376e-18
9	0x390770b1	0.00012916584
10	0xbae361d1	-0.0017347877
11	0xba6bf148	-0.0009000492
12	0xbaeda0f6	-0.0018129635
13	0xbb25a9fa	-0.0025278316
14	0xb99a5745	-0.0002943819
15	0xb7345895	-1.0749461e-05
16	0x80000004	-6e-45
17	0x39b046fa	0.00033622218
18	0xb9ce3898	-0.00039333547
19	0x392dda0a	0.00016579792
20	0xba592cfd	-0.0008284597
21	0xbb22691f	-0.0024781895
22	0xba59f1c6	-0.000831392
23	0xb39db73e	-7.344214e-08
24	0x00000000	0.0
25	0x3999b5ab	0.00029317787
26	0x398d20f6	0.00026918174
27	0xbb0ab9a4	-0.002116778
28	0xbb3ffe4c	-0.002929586
29	0xbb5b7986	-0.0033489182
30	0xbb3a5c31	-0.0028436298
31	0x00000000	0.0
32	0x00000000	0.0
33	0xb98e1d16	-0.0002710602
34	0xbab3a3d4	-0.0013705441
35	0xbb36e1bc	-0.0027905544
36	0xbb534484	-0.0032236883
37	0xba85f655	-0.0010220507
38	0xb9f5d34c	-0.0004688747
39	0x00000000	0.0
40	0x80000004	-6e-45
41	0x39939ff4	0.000281572
42	0x3982af9a	0.00024926366
43	0xb9f42bae	-0.0004657185
44	0xbb0c1ee5	-0.002138072
45	0xba237fc2	-0.0006236994
46	0xb88167eb	-6.1705556e-05
47	0x0ec571c3	4.8673798e-30
48	0x00000004	6e-45
49	0x39240894	0.00015643454
50	0x3a2a1f30	0.00064896327
51	0xbae77a45	-0.001766034
52	0xbaa1fb88	-0.0012358287
53	0xb8a2e7f0	-7.767964e-05
54	0xb74a8192	-1.2070306e-05
55	0x30068089	4.8931575e-10
56	0x00000004	6e-45
57	0xb62626fe	-2.4758624e-06
58	0xba0c2776	-0.00053464563
59	0xbb184026	-0.0023231595
60	0xb925172c	-0.00015744258
61	0x39ee6db0	0.0004547662
62	0xb4b75dad	-3.4154564e-07
63	0x30068089	4.8931575e-10
64	0x00000000	0.0
65	0x38ba0f5e	8.8720335e-05
66	0x399eeb0b	0.0003031123
67	0x3a628b62	0.00086419855
68	0x3476ba00	2.2978202e-07
69	0xb9e4f79c	-0.00043672032
70	0xb95d3264	-0.00021094974
71	0xb68fd3c8	-4.2863867e-06
72	0xb7506189	-1.2420475e-05
73	0x38378958	4.375851e-05
74	0x3843a624	4.6646353e-05
75	0x398950df	0.0002619093
76	0x39d793f2	0.00041118223
77	0xb99e8d5b	-0.00030241426
78	0xba32d845	-0.0006822388
79	0xb5c9dd6c	-1.5040109e-06
80	0xb6d14ad3	-6.237396e-06
81	0xba3ba5a0	-0.0007158164
82	0xb9ec00a1	-0.00045013896
83	0x39eeb2fe	0.00045528257
84	0x3a6b6e1e	0.00089809473
85	0xb99ed853	-0.00030297283
86	0xb9900af1	-0.00027473972
87	0x366b0c10	3.502475e-06
88	0x00000000	0.0
89	0xb994bbaa	-0.0002836858
90	0xb8074c94	-3.2257827e-05
91	0x3a351093	0.0006907072
92	0x3ab1ef70	0.0013575386
93	0x39a62304	0.00031688076
94	0xb9f0d1d9	-0.00045932716
95	0x0000000d	1.8e-44
96	0x00000000	0.0
97	0x391490ea	0.00014168365
98	0x3a4ca484	0.0007806497
99	0x3a9bec0a	0.0011895907
100	0x37c9ae64	2.4042274e-05
101	0xba8ed26c	-0.0010896451
102	0x394a695e	0.00019303474
103	0x00000000	0.0
104	0x0006c4fb	6.21676e-40
105	0x38514e7e	4.9902585e-05
106	0x3a00f567	0.00049193803
107	0x3a75f855	0.00093830127
108	0xb99c38e1	-0.00029797017
109	0xba62b06a	-0.00086475036
110	0x3a1f5a2e	0.00060788065
111	0x31b55541	5.2774856e-09
112	0x32f04c15	2.7974275e-08
113	0xb8e8099a	-0.000110644105
114	0x3995c688	0.00028567412
115	0x39f030e9	0.00045812808
116	0xb9ae7b6e	-0.00033279828
117	0x39edc367	0.0004534975
118	0x3a1905dd	0.00058373605
119	0x3841ccf7	4.6205674e-05
120	0x80000004	-6e-45
121	0x38aa37ec	8.116648e-05
122	0x399a9963	0.0002948745
123	0x3a7db9f7	0.0009678895
124	0x39bb194a	0.0003568626
125	0x3913ed7a	0.0001410748
126	0x393ab4b2	0.00017805657
127	0x3992d247	0.0002800396
128	0x00000000	0.0
129	0xb425d05f	-1.5442627e-07
130	0x39fb0f97	0.00047886066
131	0x3a6ed9f4	0.0009111457
132	0x389c8e90	7.465214e-05
133	0x3aa63acd	0.0012682319
134	0x3848c810	4.787004e-05
135	0x3626f5c1	2.4878975e-06
136	0xae6567ae	-5.2160658e-11
137	0x3906eb0b	0.00012866796
138	0x3a2e6ac5	0.0006653483
139	0xbabe64f6	-0.0014525938
140	0xba7cd12a	-0.0009644205
141	0x38a86060	8.0288155e-05
142	0x3a307532	0.00067313306
143	0xb905a299	-0.00012744441
144	0x00000161	4.95e-43
145	0x3a0f8635	0.00054750155
146	0xbab9f847	-0.0014188372
147	0xbb6b1418	-0.003587013
148	0xba893efd	-0.0010471042
149	0xba87d5e6	-0.0010363429
150	0x39f559a6	0.00046796835
151	0xb90b0827	-0.0001325911
152	0x00000000	0.0
153	0xb9181441	-0.00014503395
154	0xbb3a5e7c	-0.0028437665
155	0xba86169c	-0.0010230127
156	0xb982200c	-0.0002481941
157	0xbab76055	-0.0013990501
158	0xb96d2bb4	-0.00022618362
159	0xb7b045e8	-2.1013388e-05
160	0x00000000	0.0
161	0xba77a19d	-0.00094463845
162	0xbb2d1640	-0.0026410967
163	0xbadabc74	-0.0016688243
164	0xba860e32	-0.0010227619
165	0xba2149dc	-0.00061526685
166	0x39ec3b1e	0.00045057473
167	0x00000000	0.0
168	0xb709c68f	-8.212067e-06
169	0xba2e1e43	-0.00066420826
170	0xba3e150a	-0.000725106
171	0xba960234	-0.0011444748
172	0xbaa41076	-0.0012517113
173	0xbad1bd5c	-0.0016001868
174	0xb9a64434	-0.00031712803
175	0x000610d7	5.57054e-40
176	0xb3d8d847	-1.00976244e-07
177	0xb823aeda	-3.902507e-05
178	0x3a09addb	0.0005252042
179	0x3a2d2c7a	0.0006606054
180	0xba84dbcf	-0.0010136309
181	0xba8f79cc	-0.0010946332
182	0x38fad2f2	0.000119602206
183	0x37fca7d0	3.0118885e-05
184	0x00000004	6e-45
185	0x3648fa18	2.9947896e-06
186	0x3a188612	0.0005818318
187	0x3aac3842	0.0013139325
188	0xbaa1ad30	-0.0012334939
189	0xba812dd1	-0.0009855573
190	0x3849e5c7	4.813613e-05
191	0x37841554	1.5745558e-05
192	0x00000000	0.0
193	0x37b90dd0	2.206015e-05
194	0xbaf526dc	-0.0018703598
195	0xbb6630cd	-0.0035124302
196	0xbb2cbd19	-0.0026357828
197	0xbaae28a9	-0.0013287264
198	0xb8d0e02b	-9.9599674e-05
199	0xb855c98c	-5.0970863e-05
200	0xb08217aa	-9.465471e-10
201	0xbaa17e26	-0.001232092
202	0xbb8d97e7	-0.0043210867
203	0xbb5036ee	-0.0031771022
204	0xbb3962de	-0.002828769
205	0xbb412fb9	-0.0029477908
206	0xb9434eb7	-0.00018625973
207	0xb73a9d53	-1.1123094e-05
208	0xb3b89e1d	-8.596928e-08
209	0xbb1dad2f	-0.0024059524
210	0xbb33a757	-0.0027412975
211	0xbaa886f5	-0.0012857603
212	0xbb1f8adc	-0.0024344241
213	0xbb38caaa	-0.002819697
214	0x37d7f248	2.5742818e-05
215	0xb5cea571	-1.5396346e-06
216	0x00000000	0.0
217	0xba36b734	-0.00069700484
218	0xba193a9e	-0.00058452215
219	0xba78967b	-0.00094828726
220	0xbb201a7d	-0.002442985
221	0xba159a3c	-0.00057068816
222	0xb9b80cbd	-0.00035104706
223	0x1c9d8b4e	1.0425398e-21
224	0x00000000	0.0
225	0x399be772	0.00029736344
226	0x39bc8a2a	0.00035961095
227	0xbb22bb78	-0.0024830978
228	0xbb1d6ede	-0.002402238
229	0xba0d137e	-0.00053816277
230	0xb89ebc50	-7.569103e-05
231	0x00000000	0.0
232	0xab92ab61	-1.0421491e-12
233	0x39737754	0.00023218739
234	0xbaa5c17f	-0.0012646167
235	0xbb2d0e78	-0.002640633
236	0xba8b7a11	-0.0010641237
237	0xbab0beb4	-0.0013484568
238	0xba5ad62f	-0.0008347956
239	0xb79cdb6b	-1.8698824e-05
240	0xb44f4b1d	-1.9305703e-07
241	0x37de5435	2.6503674e-05
242	0xbb4e8da4	-0.003151753
243	0xbb40fc73	-0.0029447346
244	0xbb221dc1	-0.0024736973
245	0xbb5d8c70	-0.003380563
246	0xbb06193a	-0.0020461814
247	0xb90dd95a	-0.00013527778
248	0xb385562a	-6.208968e-08
249	0x36cde839	6.1365104e-06
250	0xbaeed602	-0.0018221738
251	0xbb63bc04	-0.0034749517
252	0xbb3e4802	-0.002903462
253	0xbb330ca4	-0.0027320767
254	0xbaba8e58	-0.0014233096
255	0xb98876aa	-0.00026028353
