Exploring Classification Using Feed Forward Neural Network/submission/best_simple.ckpt (torch, 8818 bytes, 12 tensors)

model.0.weight f4 [20, 2]
0	0x3f46241d	0.77398854
1	0x3f5b3dee	0.8564137
2	0xbeae9ef8	-0.3410566
3	0x3f5bb41b	0.85821694
4	0xbef3b910	-0.4760213
5	0xbd50d26b	-0.05098192
6	0xbf250c4b	-0.6447188
7	0x3ec9b21b	0.39393696
8	0x3f1a79ca	0.60342085
9	0xbf39a1be	-0.72512424
10	0x3f61358f	0.8797235
11	0x3e42627a	0.18982878
12	0x3f22c9b1	0.63589007
13	0xbd12a239	-0.03579924
14	0x3f1e2666	0.6177734
15	0x3df696a5	0.12040452
16	0x3f39424a	0.72366774
17	0x3e9bb52d	0.30411664
18	0xbec22bbe	-0.37923998
19	0x3edd2f28	0.4320004
20	0xbf1794e7	-0.5921158
21	0xbed1c36b	-0.40969405
22	0xbf1242e5	-0.5713332
23	0x3f3d424a	0.73929274
24	0xbf460fee	-0.77368057
25	0xbf10c2ec	-0.5654743
26	0xbde300e0	-0.11084151
27	0xbf1f97f5	-0.62341243
28	0x3de164d9	0.11005563
29	0xbf59032b	-0.8477046
30	0x3f5fb887	0.8739094
31	0xbf115d62	-0.56783116
32	0x3f3a23d4	0.7271092
33	0xbd55b0b9	-0.05217049
34	0xbef0bf2f	-0.47020862
35	0x3ea836d5	0.32854334
36	0x3e8a0a76	0.26961106
37	0x3f5cd2d6	0.8625921
38	0xbe8ad2b3	-0.27113876
39	0xbef64cd1	-0.4810548

model.0.bias f4 [20]
0	0x3e4ccfe1	0.20001175
1	0x3d5647a3	0.05231441
2	0x3eddd4bf	0.43326375
3	0x3f54bbba	0.8309895
4	0x3eb00034	0.34375155
5	0x39b5b5c3	0.00034658433
6	0x3ec79170	0.38978148
7	0x3ecf0f56	0.40441388
8	0x3f0973d4	0.53692365
9	0xbea423c6	-0.32058543
10	0xbec543de	-0.3852834
11	0x3d0941f3	0.03351016
12	0xbe9bdd38	-0.30442214
13	0x3efbf928	0.4921353
14	0x3ead7a8f	0.33882567
15	0x3e428e67	0.18999635
16	0x3eae8dc6	0.3409254
17	0xbccdb01e	-0.025108393
18	0x3f4dde1c	0.80417037
19	0xbe5212db	-0.20515005

model.2.weight f4 [4, 20]
0	0xbe046a93	-0.1293128
1	0xbea63a6a	-0.3246644
2	0x3e559b7e	0.20860097
3	0xbe255fd8	-0.16149843
4	0x3ca945a9	0.0206631
5	0xbe5bf009	-0.21478285
6	0x3d0f0cb8	0.03492424
7	0xbeae4d8b	-0.34043536
8	0xbe98f096	-0.29871053
9	0xbeaa046d	-0.33206502
10	0x3ef52a0d	0.47883645
11	0xbde114e2	-0.10990311
12	0x3ed7c4b4	0.4214226
13	0xbc3e28a0	-0.011606365
14	0xbd4d73a7	-0.050159123
15	0xbeb45b67	-0.35225984
16	0xbe9ef6a1	-0.31047538
17	0xbd1de2ca	-0.03854636
18	0xbdbb6552	-0.09150185
19	0x3f101c2d	0.5629299
20	0xbea371e0	-0.31922817
21	0xbea1b775	-0.3158528
22	0xbdd40de6	-0.103542134
23	0xbe8bb4e2	-0.2728644
24	0x3e9924d1	0.299109
25	0xbcaf7896	-0.021419805
26	0x3e7926cc	0.24331206
27	0xbd4eb6c3	-0.050467264
28	0xbdee3bab	-0.116324745
29	0xbd8c069f	-0.068372004
30	0xbe66cbfe	-0.22538754
31	0xbe6f672e	-0.23379204
32	0xbd943a04	-0.07237628
33	0x3d7b34ba	0.06132958
34	0xbc02f00c	-0.007991802
35	0x3d41a7cc	0.047279164
36	0x3ea6da06	0.32588214
37	0xbe5e0d51	-0.21684767
38	0xbe93cb25	-0.28865924
39	0xbece5ede	-0.40306753
40	0xbeadeb2a	-0.33968478
41	0x3e6fdd12	0.23424175
42	0x3e071aa4	0.13193756
43	0x3bd6d99c	0.006556703
44	0xbe15f8c5	-0.1464568
45	0xbeb3032f	-0.34963366
46	0xbeaf926e	-0.34291404
47	0xbe99ff96	-0.3007781
48	0xbebb1504	-0.3653947
49	0x3d0f8624	0.035040036
50	0xbda04838	-0.07826275
51	0x3e6dc53c	0.2321977
52	0xbe2dfb1f	-0.16990326
53	0xbecc7473	-0.39932594
54	0xbea3c9bb	-0.31989846
55	0xbe58e648	-0.21181595
56	0xbe02e708	-0.12783444
57	0xbd1ee6dd	-0.038794387
58	0x3d9d85f3	0.076915644
59	0xbf086c43	-0.53290194
60	0x3e37456d	0.17897578
61	0x3ac9e162	0.0015402252
62	0xbe866cdb	-0.26254925
63	0xbe9f7637	-0.31144878
64	0xbe99373a	-0.29924947
65	0x3cdc188e	0.026867177
66	0x3d4faf45	0.05070426
67	0x3ca03c5f	0.019560037
68	0x3eb92db5	0.36167684
69	0xbe578dd8	-0.21050203
70	0xbcdbc18b	-0.026825687
71	0xbd72069b	-0.05908833
72	0xbeb61747	-0.35564634
73	0xbc9dd272	-0.019265387
74	0xbe819ff1	-0.25317338
75	0xbe332036	-0.17492756
76	0xbd614b91	-0.055003706
77	0xbeb9fe87	-0.36327
78	0x3e8180e0	0.25293636
79	0xbebc5a78	-0.36787772

model.2.bias f4 [4]
0	0x3dee0d37	0.11623614
1	0xbebeecf1	-0.37290147
2	0x3eac5492	0.33658272
3	0xbdf44b56	-0.11928432

exp_avg f4 [20, 2]
0	0xbc05b3b9	-0.008160525
1	0xbc35f6d8	-0.011106215
2	0x3ac0f7f2	0.0014722331
3	0xbc327be9	-0.0108938
4	0x3c14abdb	0.009074177
5	0x3b913bd9	0.004432183
6	0x3badc53a	0.0053030523
7	0xba26f532	-0.00063689344
8	0xbb520d9e	-0.0032051574
9	0x3c4f17c7	0.012639946
10	0xbb842df9	-0.0040338007
11	0xbb3049cb	-0.0026899453
12	0xbb92e732	-0.004483127
13	0x3b934ab7	0.0044949907
14	0xbbad87fb	-0.005295751
15	0xbb680084	-0.0035400698
16	0xbc128f9d	-0.008945373
17	0xbc8194bd	-0.015817994
18	0x3b2f2977	0.0026727596
19	0xbb790d45	-0.0038002294
20	0x3c510725	0.012758051
21	0x3c738898	0.014864109
22	0x3b71974a	0.0036863857
23	0xbbbef44a	-0.0058274614
24	0x3c379bf5	0.011206617
25	0x3c54f576	0.012997976
26	0x39428355	0.00018550207
27	0x3bc65f7b	0.0060538626
28	0xb977e3e8	-0.00023640657
29	0x3bc4d453	0.0060067563
30	0xbbc91aa4	-0.006137209
31	0x3b836fe0	0.0040111393
32	0xbc046630	-0.008081004
33	0x3c2a121f	0.010380297
34	0x3bb3bda9	0.0054852557
35	0x3b1c64cb	0.0023863788
36	0xbb6e0524	-0.0036318982
37	0xbc5cf54b	-0.013486217
38	0x3d05bf3d	0.032653082
39	0x3c477487	0.012173778

exp_avg_sq f4 [20, 2]
0	0x3a452397	0.0007520257
1	0x3975a10e	0.00023425018
2	0x3a1074e9	0.0005510585
3	0x3ac5c9ca	0.0015090045
4	0x396b8f41	0.00022464713
5	0x399f505c	0.00030386716
6	0x392ed89c	0.00016674626
7	0x38a067d8	7.648737e-05
8	0x39d2d4c0	0.00040212832
9	0x3aa9e0b4	0.0012960644
10	0x386ea546	5.6897545e-05
11	0x387cd047	6.0275455e-05
12	0x38f4ea58	0.000116784766
13	0x3a575da8	0.0008215555
14	0x389077cf	6.888771e-05
15	0x385713e9	5.1278537e-05
16	0x3abca4db	0.0014392392
17	0x3b15f1ba	0.0022879676
18	0x391a428b	0.00014711374
19	0x38bc39c4	8.975298e-05
20	0x3a79c69a	0.000952819
21	0x3ab546f0	0.0013830345
22	0x391cf7c4	0.00014969619
23	0x397d91c9	0.0002418227
24	0x3abd9f9c	0.0014467123
25	0x3b28b983	0.002574534
26	0x3af3d84c	0.001860389
27	0x3914b635	0.00014182257
28	0x38b6b2a6	8.711712e-05
29	0x38dd2af6	0.00010546103
30	0x3960dc50	0.00021444377
31	0x38ed8b47	0.00011326983
32	0x39c1d79b	0.00036972467
33	0x3ae2bf95	0.0017299528
34	0x394668bf	0.00018921772
35	0x3a64ca97	0.0008727698
36	0x3a263f1f	0.0006341803
37	0x39a21ec0	0.00030921958
38	0x3b23f159	0.002501568
39	0x3acca069	0.0015611771

exp_avg f4 [20]
0	0x39d83c2a	0.00041243556
1	0xbc1ea4f5	-0.0096828835
2	0xbb7fafcc	-0.0039014695
3	0xbb45019d	-0.0030060776
4	0x3b347a27	0.0027538629
5	0xbb78c0a0	-0.003795661
6	0x3a9efc8c	0.0012129708
7	0xbb3c14f8	-0.0028699022
8	0xbb89028e	-0.0041812127
9	0xbb34aec8	-0.0027569998
10	0xbc07c4ae	-0.008286638
11	0xbbba02a1	-0.005676583
12	0xbbd6d532	-0.0065561766
13	0x393b24c4	0.00017847406
14	0xbabef937	-0.0014570121
15	0x3a826bba	0.0009950318
16	0x36ef5a00	7.1332324e-06
17	0xbb1463cf	-0.0022642498
18	0xbbdefb80	-0.0068048835
19	0xbc518984	-0.012789134

exp_avg_sq f4 [20]
0	0x38987ef4	7.271572e-05
1	0x39e9a887	0.00044566786
2	0x388c6fa2	6.6965134e-05
3	0x37be76e3	2.2705126e-05
4	0x38b45316	8.598545e-05
5	0x37f3f648	2.9082541e-05
6	0x380fbfca	3.4272474e-05
7	0x37cc0c03	2.4324288e-05
8	0x39d3fbbc	0.00040432613
9	0x37f29a8e	2.8920618e-05
10	0x399ec888	0.00030285516
11	0x38b158b4	8.45654e-05
12	0x39fdfc84	0.0004844406
13	0x38cf26ba	9.8777426e-05
14	0x37ae2905	2.0761518e-05
15	0x3771dcf6	1.4416166e-05
16	0x389c0afc	7.440706e-05
17	0x38cc5a64	9.7443146e-05
18	0x38eaa9d9	0.00011189626
19	0x3a03ce07	0.0005027954

exp_avg f4 [4, 20]
0	0x3c3c051d	0.0114758285
1	0x3c64b31f	0.013958721
2	0xbc2e29f4	-0.01063012
3	0x3b30ef5c	0.0026998138
4	0x3ba6d920	0.0050918013
5	0x3c11ba9c	0.008894589
6	0x3c30e13b	0.010795887
7	0x3c31d579	0.0108541185
8	0x3c5726a8	0.013131775
9	0x3b7472ea	0.003729994
10	0xbc89bab8	-0.016812667
11	0x3c313a4d	0.010817123
12	0xbccd9337	-0.025094612
13	0xbc758903	-0.014986279
14	0xbc1a2d36	-0.009410193
15	0x3c442363	0.0119713275
16	0x3c40101a	0.011722589
17	0x3b3a5526	0.00284321
18	0x3cbddef5	0.023177603
19	0xbc3f14cc	-0.011662673
20	0x3c9ac906	0.018894684
21	0x3bcfd8c5	0.0063429796
22	0x3c43e009	0.01195527
23	0x3c70c802	0.014696123
24	0xbcae86ac	-0.02130445
25	0xbab3e2ca	-0.0013724205
26	0xbbdb9d87	-0.0067021283
27	0xbadfabcc	-0.0017064749
28	0x3b777179	0.0037756844
29	0x3acde1c8	0.0015707547
30	0x3bfb9ab9	0.0076783565
31	0x3bae1da9	0.0053135944
32	0x3c43f2ce	0.011959745
33	0xbb14f2bb	-0.0022727686
34	0xbc4fd20d	-0.012684357
35	0xbcbeff45	-0.023315081
36	0xbc091ef4	-0.008369196
37	0x3b548fb3	0.0032434284
38	0x3cc62aeb	0.024190387
39	0x3b934bb3	0.004495108
40	0x3bb1fc8a	0.0054317163
41	0xbc857b02	-0.016294006
42	0xbc026dd3	-0.007960754
43	0xbcb85caf	-0.022505132
44	0x3bcc5b74	0.006236488
45	0x3bac5adc	0.0052598547
46	0x3b349394	0.0027553784
47	0x3b5ce917	0.0033708268
48	0x3b89b93e	0.004202991
49	0xbbcd3c0d	-0.006263262
50	0x3c05c600	0.008164883
51	0xbc903a1e	-0.017605837
52	0x3c373ebb	0.01118439
53	0x3c136534	0.008996297
54	0x3c15d3d7	0.009144745
55	0x3b99ccf8	0.0046936236
56	0x3b5374b6	0.003226561
57	0xbc1e6b10	-0.00966908
58	0xbc89bef8	-0.016814694
59	0x3bcb63a2	0.0062069455
60	0xbd12a55a	-0.035802223
61	0xbb8352fc	-0.0040076952
62	0x3bd96f76	0.0066356016
63	0x3ba76b03	0.0051091923
64	0x3c237310	0.0099761635
65	0xbc516bac	-0.012782019
66	0xbbe06eb0	-0.0068491325
67	0xbc4d1a40	-0.0125184655
68	0xbcacefd1	-0.021110447
69	0x3a7c511e	0.00096251245
70	0x3a7e2158	0.00096942997
71	0x3ac158b5	0.0014751168
72	0x3affa73e	0.0019504798
73	0x3c07607b	0.008262749
74	0x3c542b6e	0.012949808
75	0x3bd9e968	0.0066501386
76	0xbbd79ca2	-0.0065799514
77	0x3b6ac75d	0.0035824396
78	0xbcfa4aeb	-0.030553302
79	0x3a7bd248	0.00096062245

exp_avg_sq f4 [4, 20]
0	0x3b8f0bd7	0.004365425
1	0x3ba5352b	0.0050417385
2	0x3a1bca09	0.00059428863
3	0x3b145df4	0.0022639008
4	0x3a652363	0.000874093
5	0x3a9ebeb2	0.0012111275
6	0x3b1e88ed	0.00241905
7	0x3a37aee1	0.0007006955
8	0x3b523e9f	0.0032080782
9	0x39887266	0.00026025175
10	0x3ad6dab2	0.001639208
11	0x3b3bfa0c	0.0028682975
12	0x3c2df93f	0.010618507
13	0x3c2f76c8	0.010709472
14	0x3ba5b633	0.00505712
15	0x3a948f3a	0.0011334189
16	0x3b1c1be0	0.0023820326
17	0x3aefdcfa	0.0018300109
18	0x3bfe4693	0.007759878
19	0x39a01a1e	0.00030537037
20	0x3b400c23	0.002930411
21	0x3a85ab2b	0.0010198107
22	0x3a6595ba	0.0008757968
23	0x3b4f1cd0	0.0031602867
24	0x3bc3c737	0.005974676
25	0x3a396f14	0.0007073742
26	0x3a884ab2	0.0010398238
27	0x3a78a22d	0.00094846153
28	0x3a969f71	0.0011491609
29	0x388b969d	6.6560904e-05
30	0x39c38b9f	0.00037297324
31	0x3a08f734	0.00052248244
32	0x3b28a7aa	0.0025734701
33	0x3a39c049	0.00070858427
34	0x3aba3e88	0.001420931
35	0x3be2370b	0.0069035343
36	0x3a926117	0.0011167851
37	0x39e63b4d	0.000439132
38	0x3b6ae951	0.0035844634
39	0x38997875	7.3180454e-05
40	0x39a5f7c2	0.00031655846
41	0x3c013673	0.007886517
42	0x3addd3d0	0.0016924087
43	0x3c3dfcf6	0.011595955
44	0x3ab8079e	0.0014040356
45	0x398afe13	0.0002651071
46	0x3a0152fb	0.00049333245
47	0x396e01a1	0.00022698056
48	0x3a2e8cf2	0.0006658576
49	0x3a8f31fe	0.0010924933
50	0x3942bbf9	0.00018571307
51	0x3be9f1fb	0.007139442
52	0x3a4f5efe	0.0007910578
53	0x3ad18dbc	0.0015987675
54	0x3adc97df	0.0016829929
55	0x3aa44b96	0.0012534733
56	0x3a0215b6	0.00049623416
57	0x3b99680c	0.004681593
58	0x3b86dc09	0.0041155857
59	0x383c8938	4.4950488e-05
60	0x3c88dc1a	0.016706515
61	0x3a252da2	0.00063010503
62	0x39c15ce9	0.00036881052
63	0x3a46951f	0.00075753214
64	0x3ae9233f	0.0017786993
65	0x3b50b00c	0.0031843213
66	0x3b8d2607	0.0043075117
67	0x3a889439	0.001042015
68	0x3bf4a364	0.0074657667
69	0x390000d5	0.00012207341
70	0x38a62be4	7.923672e-05
71	0x39959c4b	0.00028535942
72	0x3a3723ca	0.0006986229
73	0x3b1abd7d	0.002361148
74	0x3b3410d7	0.0027475858
75	0x3adc8cf5	0.0016826676
76	0x3b94a56d	0.004536322
77	0x3951c21d	0.00020004106
78	0x3bffb1e9	0.007803191
79	0x37dee8f9	2.6572949e-05

exp_avg f4 [4]
0	0x3b253556	0.0025208793
1	0x3c2c248d	0.010506761
2	0xbc1aa7c8	-0.009439416
3	0xbb6b2867	-0.0035882236

exp_avg_sq f4 [4]
0	0x3a5d746c	0.0008447829
1	0x3aad6067	0.0013227583
2	0x3a2f71ff	0.0006692707
3	0x3a3797ca	0.00070035143
